deposit_next_NN.pt (torch, 3215 bytes, 3 tensors)

fc1.weight f4 [64, 4]
0	0xbe120b08	-0.1426202
1	0xbe3063f4	-0.17225629
2	0xbe80d8c6	-0.25165385
3	0xbe89ca92	-0.2691236
4	0xbfc30f55	-1.5239054
5	0xbed2483b	-0.41070732
6	0xbd2f28c6	-0.042763494
7	0x3e4cafc7	0.19988929
8	0xbd937330	-0.07199705
9	0xbebcbd36	-0.36863106
10	0xbed5c490	-0.41751528
11	0xbe577500	-0.21040726
12	0xbf619d2d	-0.88130456
13	0x3f0de32e	0.55424774
14	0xbcaee932	-0.02135143
15	0xbe68b4cc	-0.22725219
16	0xbf89c2b8	-1.0762548
17	0x3ec9923b	0.39369377
18	0xbcf9331b	-0.030419877
19	0xbf119747	-0.56871456
20	0xbf6ecdc2	-0.9328271
21	0xbb31ac63	-0.0027110807
22	0xbaa37c11	-0.0012472888
23	0xbd927553	-0.07151284
24	0xbec31990	-0.3810544
25	0x3e89abcf	0.26888892
26	0xbf7c874b	-0.9864394
27	0xbe88fef9	-0.2675703
28	0x3e027e43	0.12743478
29	0xbdef4d89	-0.116847105
30	0xbd7fba68	-0.06243363
31	0x3ef89650	0.4855218
32	0xbe79a02f	-0.24377511
33	0xbe736075	-0.23767264
34	0x39c5885c	0.00037676364
35	0xbe93fd58	-0.28904223
36	0xbf9b1130	-1.211462
37	0xbd4e62ab	-0.050387066
38	0xbe2913a5	-0.165114
39	0x3ebe9e7c	0.3723029
40	0xbf0b4faf	-0.5441846
41	0xbefcc8cb	-0.49371943
42	0x3ab5b5b8	0.001386336
43	0xbe8be6d2	-0.2732454
44	0xbfc9a08f	-1.5752124
45	0x3e4ac563	0.1980186
46	0xbd8a6344	-0.06757215
47	0x3dc2fd77	0.09521001
48	0xbebb6a2b	-0.36604437
49	0x3d822a4d	0.063557245
50	0xbeff6532	-0.49881893
51	0x3e6c8955	0.23099263
52	0xbf87e4f5	-1.0616747
53	0xbec9ff79	-0.39452723
54	0xbc33f09f	-0.0109826615
55	0xbf0219c9	-0.50820595
56	0xbf8abdaf	-1.0839137
57	0xbe77ed94	-0.24211723
58	0xbb02df5e	-0.0019969563
59	0xbbf19b94	-0.0073732827
60	0xbe896596	-0.26835316
61	0x3d72cd18	0.059277624
62	0xbba1fbaa	-0.004943331
63	0xbe3b2e54	-0.18279392
64	0xbea192eb	-0.31557402
65	0xbe98e768	-0.2986405
66	0x3a2bf1e8	0.0006559179
67	0xbedfcfbd	-0.4371318
68	0x3ea8bff4	0.3295895
69	0xbd493982	-0.04912711
70	0xbd2f1908	-0.04274848
71	0x3d077a51	0.033075634
72	0xbeb2fe92	-0.34959847
73	0xbdd137e8	-0.102157414
74	0xbe89f2d8	-0.26943088
75	0xbe49c620	-0.19704485
76	0xbf2d5307	-0.67704815
77	0x3e8a891b	0.27057728
78	0xbda5a443	-0.08087971
79	0xbdacc813	-0.08436599
80	0x3f98f9f1	1.1951276
81	0x3e82fb23	0.25582227
82	0xbcf99316	-0.030465644
83	0x3ea92573	0.33036384
84	0xbf7bf443	-0.9841959
85	0x3e2a9e95	0.16662057
86	0xbce1012f	-0.027466385
87	0xbf071a25	-0.5277427
88	0xbfaacd01	-1.3343812
89	0x3e0628e5	0.13101538
90	0xbd2f7adf	-0.04284179
91	0xbca1d4b4	-0.019754745
92	0xbe10497d	-0.14090534
93	0xbec1e380	-0.3786888
94	0x3de8d12f	0.113680236
95	0x3e871de7	0.2639
96	0xbec00ab1	-0.37508157
97	0x3dfaf7d2	0.12254299
98	0xbcb176d9	-0.021663116
99	0xbe82b221	-0.25526527
100	0xbea3dde5	-0.3200523
101	0x3e806563	0.25077352
102	0xbd4728db	-0.048622947
103	0x3e296a40	0.16544437
104	0xbed2aa84	-0.41145718
105	0xbe7bbbc0	-0.2458334
106	0xbee3241e	-0.44363493
107	0x3cc5fa60	0.02416724
108	0xbf86456d	-1.0489937
109	0xbeab964f	-0.33513114
110	0x3a035708	0.0005010222
111	0xbe408ab4	-0.18802911
112	0x3cfa8324	0.03058011
113	0xbdb6f60a	-0.08933647
114	0xb92f776e	-0.00016733792
115	0x3c2c91ac	0.010532778
116	0xbc13044b	-0.0089731915
117	0x3c276c54	0.0102186985
118	0xbeb0da5f	-0.34541604
119	0x3e90efb4	0.2830788
120	0xbe24220c	-0.16028613
121	0xbf0257b1	-0.50915056
122	0x3d99849e	0.07495998
123	0xbee40897	-0.44537804
124	0x3ed32a96	0.41243428
125	0xbe2a1459	-0.16609325
126	0x3d138fd6	0.036025845
127	0xbe138c52	-0.14408997
128	0x3a4b6411	0.00077587465
129	0xbeeb919e	-0.46009535
130	0xbe174bd9	-0.14775027
131	0xbe8691d6	-0.2628314
132	0xbe7b7300	-0.24555588
133	0xbdbb6f0c	-0.0915204
134	0xbb5528d2	-0.0032525552
135	0xbe91a56f	-0.28446528
136	0xbff2ea5f	-1.8977774
137	0xbaa7aca4	-0.001279254
138	0x3e2e7a38	0.1703881
139	0x3c51e0b7	0.012809924
140	0xbe980643	-0.29692277
141	0xbeb174ca	-0.34659415
142	0x3e644579	0.22292127
143	0xbf12d0fb	-0.5735013
144	0xbf80bb43	-1.0057148
145	0xbed9640e	-0.42459148
146	0x3e2a1908	0.16611111
147	0xbe23bc5a	-0.15989819
148	0xbe06686f	-0.13125776
149	0x3f0bf0e2	0.54664433
150	0xbddbedd4	-0.107387215
151	0xbe1d6b3d	-0.1537294
152	0xbef97bdd	-0.48727313
153	0x3e9c4a12	0.3052526
154	0xbf47df6e	-0.780753
155	0xbed0d1b6	-0.40784997
156	0xbeecc55d	-0.46244326
157	0x3e74ed48	0.2391864
158	0xbd757fff	-0.05993652
159	0xbdef1429	-0.11673767
160	0xbffc9a79	-1.9734641
161	0x3daa4c54	0.0831534
162	0x3d076c67	0.033062365
163	0xbef62e40	-0.4808216
164	0x3e6a1936	0.2286118
165	0x3eae80c6	0.3408262
166	0x3b46b7b6	0.0030321903
167	0xbea4e748	-0.32207704
168	0xbe742384	-0.23841673
169	0x3e755fa6	0.23962268
170	0xbe0582c5	-0.13038166
171	0x3bf4a9dd	0.0074665383
172	0xbefbbd7e	-0.4916801
173	0xbe886902	-0.26642615
174	0xbe1b29a0	-0.15152597
175	0xbe322d18	-0.17400014
176	0xbf506f09	-0.81419426
177	0x3e8bae9f	0.27281663
178	0xbe1da595	-0.15395196
179	0xbef11ec5	-0.47093788
180	0xbf8065f4	-1.0031114
181	0x3ecfc140	0.40577126
182	0xbd9ef151	-0.07760871
183	0xbe2236ed	-0.15841265
184	0xbe133b27	-0.14378034
185	0xbdc9c143	-0.09851315
186	0xbcc66b14	-0.02422098
187	0x3cb52e2b	0.022116741
188	0x3fac4559	1.3458663
189	0x3d134a86	0.035959743
190	0x3b18522b	0.0023242335
191	0xbd4aae35	-0.049482543
192	0x3dc95a78	0.09831709
193	0xbea6868e	-0.32524532
194	0x3dcde0b0	0.10052621
195	0x3d480d6f	0.048840936
196	0xbffed6e1	-1.9909326
197	0xbe02be1c	-0.12767833
198	0xbdd95d66	-0.106135175
199	0x3e803858	0.25042987
200	0xbf515562	-0.8177091
201	0x3e3b4c56	0.18290839
202	0xbdd287a0	-0.10279775
203	0xbee74033	-0.45166168
204	0x3a33e564	0.000686249
205	0xbddfd587	-0.10929399
206	0xb991ae9a	-0.00027786643
207	0xbd932827	-0.07185393
208	0x3ed578a2	0.41693598
209	0xbe4feae2	-0.20304444
210	0xbe871dee	-0.26390022
211	0x3e76d534	0.24104768
212	0x3f31c022	0.69433796
213	0xbe47a131	-0.19495083
214	0xbce571a7	-0.028008295
215	0x3e295213	0.16535215
216	0xbf1f59e4	-0.6224654
217	0x3da63f28	0.08117515
218	0xbd3493bc	-0.044086203
219	0xbf30d179	-0.6906963
220	0x3e02ab02	0.12760547
221	0xbe044e0f	-0.12920402
222	0x3e4a4d2f	0.19756006
223	0xbd184cf4	-0.037182763
224	0xbf5edaa9	-0.870524
225	0x3e878a76	0.26472825
226	0xbd141061	-0.036148433
227	0x3e70e4d4	0.23524791
228	0xbea92a1b	-0.33039936
229	0xbe3607bd	-0.1777639
230	0xbc1331d8	-0.008984052
231	0xbb3a1472	-0.0028393534
232	0xbf6ca045	-0.9243205
233	0xbf2b724a	-0.66971266
234	0x3c86d33a	0.016458143
235	0x3d1386ea	0.036017336
236	0xbd0ed6cc	-0.034872815
237	0xbccbc7df	-0.02487558
238	0xbd905859	-0.07048101
239	0x3e9b72e2	0.30361086
240	0xbf8f8b4b	-1.1214384
241	0xbef6b9c7	-0.48188612
242	0xbb76cd0b	-0.0037658836
243	0xbe13a60f	-0.14418815
244	0xbfb17c6e	-1.3866098
245	0xbed32de6	-0.41245955
246	0xbd8fa122	-0.070131555
247	0x3e653da3	0.22386794
248	0x3ecc6deb	0.3992761
249	0xbf2decb6	-0.6793932
250	0x3cb3b327	0.021936012
251	0x3e8d7f20	0.2763605
252	0xbf3e719a	-0.7439209
253	0xbdde284e	-0.10847531
254	0xbda31e8f	-0.07964813
255	0x3dda05ff	0.10645675

fc1.bias f4 [64]
0	0xbe855038	-0.26037765
1	0xbe471ff9	-0.1944579
2	0x3ef97712	0.48723656
3	0xc05825e9	-3.3773139
4	0x40eb08ff	7.344848
5	0xbfaf5c16	-1.3699977
6	0x3f8fbf52	1.1230261
7	0x411d8346	9.844549
8	0x3f002c25	0.5006736
9	0x4051377b	3.2690113
10	0xbf669d88	-0.90084124
11	0xc0548a86	-3.3209548
12	0xc00a77bc	-2.163558
13	0x3e3bd269	0.18341984
14	0xc10574f9	-8.341058
15	0x411e9f8f	9.913955
16	0xbf19255f	-0.5982265
17	0x4076590e	3.8491855
18	0xbe198a9c	-0.14994282
19	0xc0f1d19f	-7.5568385
20	0x401e8090	2.4765968
21	0x40eb1f4d	7.347571
22	0xc0b9b09b	-5.8028083
23	0x41244b97	10.268455
24	0x3ef9cf5e	0.4879102
25	0x4088f5fa	4.2800264
26	0xbea2aa5a	-0.31770593
27	0x3fd955a9	1.6979266
28	0xc0d33e15	-6.6013284
29	0xc03e7ec5	-2.9764874
30	0x409eea63	4.9661117
31	0xc09b5c24	-4.8549976
32	0xbef99c6d	-0.48752156
33	0x40a0f3b1	5.0297475
34	0xc13b5356	-11.707846
35	0x411a0d9a	9.628321
36	0xc12d7d5d	-10.843106
37	0xc13011ee	-11.004377
38	0xbe5ea4ae	-0.21742508
39	0xc0aa4b01	-5.3216558
40	0xc1254f64	-10.331882
41	0x417a810b	15.656505
42	0x3e729e09	0.23693098
43	0x3e9ac6b4	0.30229723
44	0x40ebedb7	7.372768
45	0xc072e7dc	-3.7954016
46	0x404e3bbb	3.2223957
47	0x3e3e1345	0.18562038
48	0x3fce6bac	1.6126609
49	0x406a3cd9	3.6599638
50	0x40c6d0b6	6.2129774
51	0xc05dbdf8	-3.4647198
52	0xbf81c116	-1.013705
53	0x3fea3d9f	1.8300055
54	0x40446afc	3.0690298
55	0x411ec9ed	9.924298
56	0xc0ee88ef	-7.4542155
57	0x403d1041	2.954117
58	0xc0c55522	-6.166642
59	0x4074b5fa	3.823607
60	0xc08667fd	-4.200194
61	0x3fe56958	1.7922773
62	0x40c883c8	6.2660866
63	0xbf20bde4	-0.6278975

fc2.weight f4 [1, 64]
0	0x3dcf8da8	0.10134441
1	0x3e1fe022	0.15612844
2	0x3be4a360	0.0069774836
3	0x3ce17397	0.027520938
4	0x3dc82064	0.09771803
5	0xbc8957ce	-0.016765501
6	0x3f080738	0.53136015
7	0x3c2179a1	0.009855659
8	0x3c9fe4b7	0.01951824
9	0x3e025906	0.12729272
10	0xbc4ef90b	-0.012632619
11	0xbcc44358	-0.023957893
12	0xbd9243ef	-0.071418636
13	0x3cb9c4b7	0.022676809
14	0xbc933d2c	-0.017973505
15	0xbb0a665f	-0.0021118147
16	0xbb80093a	-0.00390735
17	0x3e195833	0.14975052
18	0x3d4d07f0	0.050056398
19	0xbd17fec6	-0.037108205
20	0x3cba3fdc	0.022735529
21	0x3b824bb6	0.0039763106
22	0xba32f02e	-0.00068259507
23	0x3d08f790	0.03343922
24	0xbb29f7e4	-0.0025935108
25	0x3c54f241	0.012997211
26	0x3d565b24	0.052333012
27	0xbc96f7a1	-0.018428626
28	0x3bc7430e	0.0060809916
29	0xbd913b88	-0.07091433
30	0x3c7a7729	0.015287199
31	0xbd3ad331	-0.045611564
32	0xbdbba065	-0.09161452
33	0x3d00a91a	0.031411268
34	0xbd8627a9	-0.06550533
35	0x3caf1c9e	0.02137595
36	0xbd2cb8d9	-0.042168472
37	0xbc47d5fb	-0.012197013
38	0x3f17e0c3	0.59327334
39	0xbd85ac88	-0.06527048
40	0xbc1ce6af	-0.009576484
41	0x3d08889b	0.033333402
42	0xbd3d3cb2	-0.04620046
43	0xbd8b7aa4	-0.06810501
44	0x3f86b2a6	1.0523269
45	0xbc0a4121	-0.0084383795
46	0xbde3d92c	-0.111254066
47	0x3b814c85	0.0039458894
48	0x3d7c4548	0.06158951
49	0x3dffd9a2	0.12492682
50	0x3e95b2a4	0.29237854
51	0x3bf7e7d1	0.0075654765
52	0xbd7b62e9	-0.061373625
53	0xbd97dbaf	-0.07414948
54	0x3d52cd1d	0.051465143
55	0x3ccce4a9	0.025011377
56	0x3bd8c726	0.006615537
57	0x3b5003e2	0.0031740596
58	0xbc92b72f	-0.017909614
59	0xbc984627	-0.018588139
60	0xbc4ae124	-0.012382779
61	0x3dc241cd	0.09485207
62	0x3b89772a	0.0041951137
63	0x3c9497f9	0.018138872
